…
    numdata_ec     30000
    

    classes:       9
    epochs:        20
    batchsize:     512
    lr:            0.001
    use_bn:        True
    Phi_sizes:     (100, 100, 128)
    F_sizes:       (100, 100, 100)
        
TensorBoard log path is /hpcfs/cepc/higgsgpu/wuzuofei/weaver/particle_transformer-main/networks/my_script/PFN/my_script_DDP/log_tensorboard/log_DDP_test
----------------------------------------------------------------
        Layer (type)               Output Shape         Param #
================================================================
       BatchNorm1d-1               [-1, 6, 200]              12
            Conv1d-2             [-1, 100, 200]             700
       BatchNorm1d-3             [-1, 100, 200]             200
              ReLU-4             [-1, 100, 200]               0
            Conv1d-5             [-1, 100, 200]          10,100
       BatchNorm1d-6             [-1, 100, 200]             200
              ReLU-7             [-1, 100, 200]               0
            Conv1d-8             [-1, 128, 200]          12,928
       BatchNorm1d-9             [-1, 128, 200]             256
             ReLU-10             [-1, 128, 200]               0
           Linear-11                  [-1, 100]          12,900
             ReLU-12                  [-1, 100]               0
           Linear-13                  [-1, 100]          10,100
             ReLU-14                  [-1, 100]               0
           Linear-15                  [-1, 100]          10,100
             ReLU-16                  [-1, 100]               0
           Linear-17                    [-1, 9]             909
================================================================
Total params: 58,405
Trainable params: 58,405
Non-trainable params: 0
----------------------------------------------------------------
Input size (MB): 0.00
Forward/backward pass size (MB): 1.52
Params size (MB): 0.22
Estimated Total Size (MB): 1.74
----------------------------------------------------------------
None
  0%|        
…
